kedro-asi/AutogluonModels/ag-20231213_182836/models/NeuralNetFastAImodel-internals.pkl (torch, 158304 bytes, 16 tensors)

weight f4 [51, 14]
00000000: a458 06bd 485e 0dbd 084f 333d 5f4c eabd
00000010: bcc3 3b3d 0c12 e3bd 4092 74bc b2e3 15bd
00000020: 47d0 4e3d febc a73b c785 e1bd 9398 0a3e
00000030: 458a e43d 2a17 e23d 40e5 133c ccfa 01bc
00000040: 8b82 b7bc 7dff 11bd 9ac1 a33a 5e70 863c
00000050: 3871 823c 7cd1 dfbc 5b72 033d 040f cc3c
00000060: e33a 06bd 0301 853c 84b6 5f3d b01b 103d
00000070: 28b0 a53b f013 9bbd 9074 7fbd 0ede f9bc
00000080: 60cb f23c 1b1f 033d b78b 33bc 0df6 76bc
00000090: e653 6ebc 6bf7 423d c0bb bbbc bcfa 4b3d
000000a0: 18d7 2f3d 4641 ce3c a2de 90bd 0016 91bb
000000b0: fb71 3dbd eed8 883b d8ab 90bc 5db5 40bc
000000c0: b461 21bd 7044 d4bc b698 ae3c eef3 fc3c
000000d0: aaee 90bd 41ea bd3c fed9 723d 2010 473d
000000e0: 706e 08bd 6541 a5bc 7706 52bc bc40 bdbd
000000f0: 013f 5c3c f88f e7bb 3349 913c 6bfb 0ebd
00000100: 0249 113d d5e7 0939 ecf9 f1bc 10c8 2d3d
00000110: 0ea4 df3c 0311 8d3c cadd 5fbd 7fc0 dfbc
00000120: 6141 b33c ef53 77bc 5ca9 943c 84c7 cdbc
00000130: d679 023d 03ac 1d3c 4db6 433c 9557 263d
00000140: 4913 a4bc 452b 4e3d 9637 183d 87b9 4f3d
00000150: 6eab 6fbb 0eae 2bbd 563c 6cbd 05d0 18bc
00000160: 93f6 933c c45a 23ba ecac 7dbc 627b efbc
00000170: 9643 54bc 2279 7dbc 7024 f638 bf38 7c3c
00000180: bab5 e33c abdd d93b 3b6b b7bc 5be1 e4bd
00000190: 1cab b2bd fcca e0bd 2aaf 65bb 1526 b8bc
000001a0: 3956 07bd b47a cfbd 4fea d73d e17f 6f3d
000001b0: 5070 59bd 3a24 133e bb0e 203e c259 423d
000001c0: 8cdd 80bd 6b31 973d 2a5d ecbc 0ad3 d93b
000001d0: 9827 c23c 5c12 b3bb 109d d23a 4e33 65bd
000001e0: 5bea ba39 415d b93c 1bbf 393d 351d 4b3d
000001f0: a2d8 59bc 959d ab3c fdb9 4e3d 556f 963c
00000200: f227 1c3c f7e0 59bc cae6 9bbb 3a36 c7bc
00000210: f36a 70bd be39 f93c bebb 8f3d dbc4 a63c
00000220: 4b0a 0cbd 591e 91bc 4a2e 7a3d 5db1 0cbe
00000230: 229f 18bd df55 88bd 8daa 9cbb 14a8 57bd
00000240: 0a3f b73c 818e be3c 438e 95bc 4c1b 2fbc
00000250: 6fb6 873d 43f8 803d 629d 97bd 445a 02bd
00000260: ce5d 8e3d b4ef fb3a 4403 7cbc 563c d8bd
00000270: c082 dabd 8e7d 81bd b1ca 613c 6f1c 1b3d
00000280: 7fb7 8a39 6bdc 3bbd 2cb3 5b3d 5d83 963d
00000290: b7a7 f2bc 65c9 613d 9683 3e3d 37bb e43c
000002a0: d791 09bd 529c 00bd 7021 0cbd df86 f9bc
000002b0: 698e a1bb b833 083b c1d5 c9bc 3b7b 40bc
000002c0: 9a2a c23c c80f 20bd 0562 c23a 9091 71bc
000002d0: cde4 573b cc0d c93c 93ad 51bb 052c a8bc
000002e0: 2415 67bc f943 c1bc 3aa8 c7ba ecb1 96bc
000002f0: ddc9 31bc 1011 80bd 1507 a43a 53b5 9dbc
00000300: 8e23 ce3b 159f aa3c c265 503d d63a 203c
00000310: ba52 4abc 84de 873c 86ab bbbd 175f 373d
00000320: 8e87 6bbd 3012 283d 1197 cdbd 822c 8cbc
00000330: ed9d 66bc 7fc4 c4bc 1b1a 483d 5f7b 893d
00000340: 4a46 16bd 960b d33c 0145 7d3d 33d2 78bd
00000350: 68de aa3d 598c 20bd d84d a03d c806 cf3c
00000360: 8166 06bc c814 953d 6d6c b3bb 4de6 3e3d
00000370: 8dfe 07bd fd4e 683c 97c2 4c3d 1ae1 0bbd
00000380: 13c9 063d c59a ef3c ffcb eebc 9fba 29bc
00000390: c44a 64ba a64c e03c be01 00bd 991a 0fbb
000003a0: 6331 81ba 2027 173b 7041 76bc 439e 4abb
000003b0: ebd6 fd3c 7089 4aba 7c85 05bc 0744 413d
000003c0: 64e1 67bc 16e7 6abc 2972 4ebc d7e9 9e3b
000003d0: a8fd 243c 15ce 193c 689c 91bd d86c 06bd
000003e0: d0d4 46bb 3772 0bbb e819 ccbc 386e 163b
000003f0: 3669 50bc 32b3 25bd cc9e 20bd b43b 92bc
-0.032799378 -0.03451374 0.043776542 -0.11440348 0.045840964 -0.110874265 -0.014927447 -0.0365941
0.050491598 0.005118965 -0.11011844 0.13534765 0.11159185 0.110395744 0.009026825 -0.00793333
-0.022401115 -0.035644043 0.0012493611 0.016411003 0.015923128 -0.02732157 0.03209148 0.024909504
-0.032771003 0.016235834 0.05461742 0.035182655 0.0050564 -0.07572162 -0.062367022 -0.030501392
0.029637992 0.032012086 -0.010958604 -0.0150733115 -0.01454637 0.047599237 -0.022916675 0.049799666
0.04292974 0.02517761 -0.07073714 -0.0044276714 -0.04625128 0.0041762507 -0.017660066 -0.01176199
-0.039399818 -0.02591154 0.021313053 0.030878033 -0.070767716 0.02318299 0.059289925 0.048599362
-0.033308446 -0.020172784 -0.012818924 -0.09240863 0.013442756 -0.007066723 0.0177351 -0.03490774
0.035470016 0.00013151702 -0.029538117 0.042427123 0.027299907 0.017220026 -0.054654874 -0.027313469
0.021881761 -0.015095695 0.018147163 -0.02511955 0.031854473 0.00962353 0.011945319 0.04061087
-0.020028727 0.050334234 0.037162386 0.050714042 -0.0036570686 -0.04191404 -0.05767473 -0.0093269395
0.018061912 -0.00062314817 -0.015483122 -0.029233638 -0.012955567 -0.015470775 0.00011736981 0.015394389
0.027796615 0.0066487393 -0.022389999 -0.11175796 -0.08724043 -0.10976216 -0.0035047033 -0.022479096
-0.033041213 -0.10130826 0.10542738 0.058471564 -0.053085625 0.14369288 0.15630619 0.04744888
-0.06292257 0.073824726 -0.028853018 0.0066474723 0.02370052 -0.005464835 0.0016068537 -0.05595713
0.00035651293 0.022627475 0.045348268 0.0495884 -0.013296278 0.020949164 0.05047034 0.018363634
0.009531008 -0.013298265 -0.004757737 -0.02431785 -0.058695745 0.030423041 0.07018231 0.02035754
-0.034189504 -0.017714666 0.0610793 -0.13739534 -0.037261136 -0.066570036 -0.0047810734 -0.052650526
0.022368927 0.02326131 -0.018256312 -0.01068766 0.06626593 0.06297352 -0.07403065 -0.031824365
0.069514856 0.0019221217 -0.015381638 -0.10558383 -0.1066947 -0.06322776 0.013781236 0.037868913
0.00026458126 -0.045864504 0.05363767 0.07349274 -0.029620988 0.055123705 0.04651221 0.027921302
-0.03358635 -0.03139908 -0.034211576 -0.03045982 -0.0049303067 0.002078278 -0.024638059 -0.01174813
0.023701955 -0.03907755 0.0014830237 -0.014744177 0.0032942772 0.024542712 -0.0031994327 -0.020528803
-0.014104161 -0.023591982 -0.001523263 -0.018395387 -0.010851351 -0.062532544 0.0012514318 -0.019251501
0.0062908595 0.02082781 0.050878294 0.009779653 -0.012348825 0.016585596 -0.09163575 0.04476842
-0.057502322 0.04103297 -0.10038579 -0.017111067 -0.014075738 -0.024019478 0.04885302 0.06712984
-0.036688127 0.02576236 0.061833385 -0.060747337 0.08343202 -0.039196346 0.078273475 0.025271788
-0.00820315 0.07279354 -0.005475572 0.04660635 -0.033201743 0.0141789885 0.049990263 -0.03415022
0.032906603 0.029248605 -0.029150007 -0.010359435 -0.0008708651 0.027380299 -0.03125166 -0.0021835922
-0.0009856637 0.0023064092 -0.01503025 -0.0030917085 0.03098627 -0.0007726168 -0.008149501 0.047184017
-0.014152858 -0.014337322 -0.01260046 0.004849653 0.010070242 0.009387513 -0.0710991 -0.032818645
-0.0030339248 -0.0021277794 -0.024914697 0.002295388 -0.012720397 -0.040454097 -0.03921394 -0.017850734

weight f4 [20]
00000000: 9395 7b3f b63f 813f 902c 913f 8d33 823f
00000010: 414e 7e3f fd18 803f ecb7 7c3f 5de4 8f3f
00000020: f8cc 7d3f 7613 823f d4cb 803f 82cf 6a3f
00000030: 3a2a 803f 87b2 783f c9f5 763f c7b2 6a3f
00000040: 166f 703f 443a 723f 9778 6e3f c5ce 7b3f
0.9827511 1.0097568 1.1341724 1.0171982 0.99338156 1.0007626 0.9871814 1.1241566
0.9914088 1.0162189 1.0062203 0.9172288 1.0012887 0.9714741 0.9646879 0.9167904
0.93919504 0.94620156 0.93152755 0.9836238

bias f4 [20]
00000000: 21b6 163b 9141 4ebc 4f0b 5f3d 651d 13bc
00000010: 450f e43a 1e9f c63c 682f 9abb e5b7 043b
00000020: f9cf 233d 6a5a b2bc f6ca c13b 0d19 b2bb
00000030: 1ef4 fabb c234 05bd 1ccb b93c cd85 7e3c
00000040: 87b8 9e3c f2e2 dd3a dc87 a73b 9674 c9bc
0.002299674 -0.012588874 0.054454144 -0.008979176 0.001739957 0.024245795 -0.0047053583 0.0020251211
0.03999326 -0.021771628 0.0059140874 -0.005435115 -0.0076584956 -0.032521017 0.022679858 0.01553483
0.019375099 0.0016928597 0.0051126312 -0.024591725

running_mean f4 [20]
00000000: e8d1 b1bb 6865 8b39 f33d 2d3b 9d12 7bbb
00000010: 6c82 953a 624a cc3a 44c1 713a 0bdb 893b
00000020: 403b ab3a c0cc e3b8 bfd1 abbb 72a3 2c3c
00000030: 539f 2f3c ce1d 413b 10a1 abbb bd15 6e3b
00000040: 20df 503b b3c6 173c 7bf1 9f3a 4d5b 0e38
-0.005426634 0.000265877 0.002643463 -0.0038310655 0.0011406667 0.0015586133 0.0009222219 0.00420702
0.0013063923 -0.00010862341 -0.0052435095 0.010537015 0.010719138 0.0029467228 -0.005237706 0.0036328875
0.0031871274 0.009263682 0.0012202704 3.394047e-05

running_var f4 [20]
00000000: 925d 7c3f 4b48 803f f9a7 7f3f f7d9 803f
00000010: 3831 803f 7fb9 803f 7031 803f 626d 693f
00000020: 2c07 803f 0661 7f3f 9ace 803f fdd9 7f3f
00000030: b12e 803f 541e 803f c449 803f 9f6b 863f
00000040: 26fe 803f 33d1 7e3f 8b09 823f 88d8 803f
0.98580277 1.0022062 0.9986568 1.0066518 1.001502 1.0056609 1.0015087 0.9118253
1.0002189 0.9975742 1.006305 0.99942 1.0014249 1.0009255 1.0022511 1.0501593
1.007756 0.9953796 1.0159162 1.006608

weight f4 [200, 34]
00000000: 52ed 39be 6dce dcbc dded 0ebc c774 46be
00000010: e4c8 383d 96de 11be 9638 d23d 1b31 0f3e
00000020: 6dc4 643e 490c 5aba f176 a83b 8140 e63d
00000030: 31b4 4d3e 5b86 813e 9476 b7bd 3449 15be
00000040: a4ee 05be 0686 48bd e9c1 1e3e bacd 653d
00000050: 841f 093e d78f 393e 9e7e e43b 0adf 25be
00000060: d1be f83d f916 ef3d 54ad 823d 4ba1 e9bd
00000070: 1f83 173e 29a1 3a3c a1d8 f03d 951b b93d
00000080: d9e6 a03d b39d 21be cce9 bcbd e102 2d3e
00000090: cd8e 8fbc 5c14 04be 2dc4 b53d 0c6f 61bc
000000a0: 0a96 273e 598c 17be 0308 793d 4a28 0cbe
000000b0: 9a04 443b fc20 1fbd a5bf e4bd 46af d63d
000000c0: 600a 55bd 825f 173e ffa0 b33d e1e3 6fbb
000000d0: 51ee fabd e861 17be 72af 37bd f7e5 49be
000000e0: a96b 923b 8b56 efbc d7d4 6a3b d533 a5bd
000000f0: b880 e13d 5865 c03d ab9f 6cbd 4d14 6fbd
00000100: 7985 e83d 8948 103e 4fe5 12be 8afd afbc
00000110: d517 2bbd bbf3 b5bd 1401 233e a490 fbbb
00000120: 8ceb 3b3e 341c 0cbc 9a62 8fbc 11c0 bcbd
00000130: 32de 78bc 23f1 e23d 65f0 593d 3787 36bc
00000140: fbb3 4a3e b059 e7bd 7618 cd3d 96db e23d
00000150: d678 7dbd a3a4 b33d 80d8 863c 6051 0ebe
00000160: 551b e6bd 3e7c 783d 50a6 93bd 3b51 8c3d
00000170: f874 373e 6548 913d a721 b43c be15 af3d
00000180: a01e 10be f4a1 d6bd bd5e 05be 818b c8bd
00000190: 4d67 a43b d55a f7ba 09c6 acbd d6bd 6abe
000001a0: 8003 eb3d 3d83 f5bd 4b1c 443d 41c0 eabd
000001b0: 55e6 a7bd ae40 f73d cd3c 05be cc9b 2fbd
000001c0: 9cba 743d 5225 a4bd b61e 2fbc 022f c8bd
000001d0: add3 ae3d fe5b c9bd cf6c fe3c 1be5 a83d
000001e0: f67b 3e3b 27ed 383d 8234 e7bd 3b51 cf3d
000001f0: 4d4a 983d eb6c 0fbd 0a38 05be b477 973d
00000200: fbb6 0c3e 251c 25bd fe51 953d f305 ad3d
00000210: ca01 99bd 4281 0c3d 87e9 013e 4e05 02bd
00000220: d0f0 0abe 5eb2 18b9 2b51 863d 5eae 64bd
00000230: da11 d8bd 30c4 173e 1202 8c3d 3efa 6bbd
00000240: 814d 8bbc a183 b9bc 726d 5a3d 9292 95bc
00000250: f71b a0bd 8283 6a3c f710 473c 4a77 193d
00000260: a18f 64bd 6b89 8b3d 044d f1bd 5318 963d
00000270: 1042 e43d f510 7a3b 540c eabd 0bd2 9bbc
00000280: 85cf 063d d339 f6bd c735 b0bd 0b94 3b3e
00000290: c416 b93d b491 903d 29cb 1b3e 1968 943d
000002a0: 4fc9 fc3d fc54 0e3e 88b0 f2bb 66cd 8bbc
000002b0: 97db f63d adb2 4c3d f657 f5bd 1274 2abe
000002c0: bc3f d53d f9b9 0c3e 0cbe d63d 5921 12bd
000002d0: c7b2 093e 90ec 5dbe 4414 5abe 1fe5 38be
000002e0: 74ad 1f3e c1f5 c33c fe24 abbd 9e12 d73d
000002f0: 1671 41bd 01ff 9abd 6e3e e23d f129 103d
00000300: faa4 dabd ec8d 06be 7fb7 e93d f186 f93d
00000310: ebd3 1c3c 4d98 9dbd 6581 c73d dd68 ae3c
00000320: d13b 3dbe f98c dabd 6ecb 773a d81d 943d
00000330: eb55 afbd 41b6 b83d 4274 15be 1e55 633e
00000340: 5dd1 8b3d 144c 853d a33f 673d 6d27 9abc
00000350: 9876 02be e0a0 14bd fde6 233e a7bb d9bd
00000360: 3b1e 193e 7e68 dabd b9f0 3bbe f448 b0bd
00000370: b260 26be 0745 183e ec51 c4bd ee10 10be
00000380: 5370 0dbd ff62 b6bd 800c f0bd 0238 7c3d
00000390: 5298 03be 8b6f 933d 1dd2 fd3d 0d27 853c
000003a0: d901 443d e925 d0bd 3d58 063e 482f 2e3e
000003b0: b95b da3c d05e 0e3e d845 55be 823a 063c
000003c0: 9df2 7fbd 489a 6abe ca7c 4e3d f258 b4bc
000003d0: de83 d1bd 9e95 85be 632f 143e 727c 20be
000003e0: bb74 11bd 0ff4 1c3e 490c 433e 786a f33d
000003f0: 023e 7ebd 0648 04bd 1304 123e 304b 983d
-0.18156937 -0.0269539 -0.008723703 -0.19380485 0.04511346 -0.14245066 0.10264699 0.13983576
0.22340555 -0.00083178707 0.005141132 0.11242772 0.20088269 0.25297818 -0.08958164 -0.14578706
-0.13079315 -0.04895594 0.15503658 0.0561044 0.13390929 0.18121277 0.0069731018 -0.16198364
0.1214577 0.116743036 0.06380716 -0.11407717 0.14796112 0.011390963 0.11760069 0.09038464
0.07856531 -0.15782814 -0.09224281 0.1689563 -0.017524147 -0.12898391 0.08875308 -0.013759386
0.16365829 -0.14799632 0.060798656 -0.13687244 0.002990997 -0.038849816 -0.11169366 0.104826495
-0.052011847 0.14782527 0.08770942 -0.0036604332 -0.122524865 -0.14783442 -0.044845052 -0.19716631
0.0044684005 -0.029216072 0.003583243 -0.08066527 0.11010879 0.0939433 -0.05776946 -0.05836897
0.11353583 0.1409017 -0.14345287 -0.021483202 -0.041770775 -0.088843785 0.1591838 -0.0076771546
0.18351573 -0.008551646 -0.017503072 -0.09216321 -0.015189694 0.110811494 0.053207774 -0.011140636
0.1979522 -0.112964034 0.10014431 0.11077039 -0.061882816 0.08771636 0.016460657 -0.1389823
-0.11235682 0.06066536 -0.07209456 0.06851431 0.17915714 0.07093886 0.021988703 0.08549069
-0.14074183 -0.10480109 -0.13024421 -0.09792233 0.005017197 -0.0018871675 -0.0843621 -0.22923979
0.11475277 -0.11987922 0.047878545 -0.11462451 -0.08198229 0.120728835 -0.13011475 -0.04287319
0.059748277 -0.08014931 -0.010688474 -0.09774591 0.08536468 -0.09831999 0.031057743 0.082468234
0.0029065586 0.04514804 -0.11289312 0.10122915 0.07436047 -0.03501598 -0.13009658 0.073958784
0.13741677 -0.040310044 0.072910294 0.084484 -0.07471044 0.034302957 0.1268674 -0.03174334
-0.13568425 -0.00014562297 0.0655845 -0.055830352 -0.1055028 0.14820933 0.068363324 -0.057611696
-0.01700473 -0.022645773 0.05332703 -0.018258367 -0.07817834 0.0143135805 0.012150041 0.03746728
-0.055801038 0.0681332 -0.11782268 0.07328858 0.11145413 0.003815708 -0.11428133 -0.019021055
0.03291275 -0.12022748 -0.08604007 0.18318193 0.09037545 0.07059041 0.15214218 0.072464176
0.12343084 0.13899606 -0.007406298 -0.017065715 0.12053602 0.049975086 -0.11979668 -0.1664584
0.10412547 0.13742818 0.10485467 -0.035676334 0.13447104 -0.21672273 -0.21296793 -0.18056153
0.15593511 0.023920896 -0.08356665 0.10501598 -0.047226988 -0.075681694 0.11047064 0.03519625
-0.10675998 -0.13140076 0.11411952 0.12183941 0.00957201 -0.07695065 0.09741477 0.021290237
-0.1847985 -0.1067142 0.00094526156 0.07232255 -0.085613094 0.09019137 -0.1459513 0.22200438
0.06827042 0.065086514 0.056457173 -0.018817628 -0.12740552 -0.036286235 0.16006084 -0.10631495
0.14952938 -0.106644616 -0.18353547 -0.08607665 -0.16247824 0.14870082 -0.09585938 -0.14068958
-0.03453095 -0.08905601 -0.11721134 0.06157685 -0.12851074 0.071990095 0.123935916 0.016253972
0.047853325 -0.10163481 0.13119598 0.17010224 0.026655065 0.13903356 -0.20827425 0.00819266
-0.062487233 -0.22910416 0.050411977 -0.022015069 -0.1023023 -0.2609071 0.14471202 -0.15672472
-0.035511713 0.15327476 0.19047655 0.11885542 -0.062070854 -0.03229525 0.14259367 0.07436216

weight f4 [200]
00000000: d80d 833f c7b0 813f 7113 7e3f 75ac 813f
00000010: d514 783f 455e 793f d8ed 813f 7707 803f
00000020: 80b0 833f 46b2 7f3f 59fe 7c3f 7f27 7e3f
00000030: d351 823f c20e 813f 43ff 813f 61ef 813f
00000040: 8fe2 7d3f 0f58 7e3f 84d2 7c3f 2e71 7e3f
00000050: db76 803f a7a5 813f 7f56 7e3f 4932 853f
00000060: 3f96 833f 413e 813f b5bd 803f d29a 773f
00000070: 5f25 7c3f f894 7d3f c065 773f f654 753f
00000080: 2a8f 803f 9cbe 7b3f cdfc 783f f87e 7d3f
00000090: 1062 7f3f bc95 823f 2034 813f 8130 833f
000000a0: b131 7a3f 63c7 813f 0b70 833f fcf9 7a3f
000000b0: 4ded 803f 7e5f 823f 3749 7e3f ce1e 813f
000000c0: 3e3c 7c3f 32ba 813f 2878 7d3f 3a86 803f
000000d0: f93d 793f d50e 763f 5f22 7c3f a19f 783f
000000e0: f5a0 823f 8f30 783f 7a03 823f 8a0b 803f
000000f0: 414b 823f e43c 803f 5876 7a3f dd3b 813f
00000100: 991e 803f dbbb 7f3f b829 7f3f c884 823f
00000110: 46b0 833f de4c 7e3f dba0 773f f44b 803f
00000120: cf62 7c3f 6d1f 823f 67f5 7a3f 4915 7d3f
00000130: d2ef 7d3f 1253 833f ba14 803f 8ee3 7a3f
00000140: 2f33 813f 37c2 7f3f 4ab5 703f 4cb9 763f
00000150: 4cc8 813f a4a5 833f 3a55 863f 11d9 803f
00000160: 0667 7c3f 2f0e 7e3f 5915 813f bb8b 823f
00000170: bd52 7f3f 0f82 813f 1ce5 803f 6157 7d3f
00000180: e90c 7e3f 8552 803f 4a5b 803f e62e 803f
00000190: 8357 813f 0f30 813f dc49 7e3f 3f60 823f
000001a0: 3b87 7c3f 6a0a 823f 83fb 7b3f d0db 803f
000001b0: 8ace 7f3f 0670 7f3f b79b 7e3f 54d6 7f3f
000001c0: 322d 813f 8940 853f ef84 813f f819 783f
000001d0: e9bc 833f c9d1 833f 5a08 803f 69b5 823f
000001e0: 0b8b 803f dad6 7f3f fc18 7e3f 7be2 803f
000001f0: 5797 823f 0fe4 863f c84e 803f 3e7a 7a3f
00000200: 05f4 773f bc5e 833f e6fc 7c3f 7581 7c3f
00000210: 7751 7b3f 2ded 803f 0ee9 813f b7d9 803f
00000220: 1353 7f3f 98b8 843f d3e5 803f be96 823f
00000230: a346 7b3f 9037 7b3f d56d 813f d43c 793f
00000240: 4b4f 783f 4f10 7c3f a4db 793f 0464 813f
00000250: 583a 7d3f 18c1 823f 02c9 7f3f bc9e 813f
00000260: 3bab 853f b9d1 813f a2be 833f d328 803f
00000270: e168 7e3f de0f 743f c9fc 813f 2188 7b3f
00000280: 78dc 823f 9569 7d3f 8b99 7d3f 9cd4 823f
00000290: 49f3 833f 35a7 803f 85c1 783f 8a71 7f3f
000002a0: f438 803f 7afb 873f 7694 813f c0a9 813f
000002b0: cdb3 7d3f fd6c 843f 977d 813f 28f0 7f3f
000002c0: c02f 7d3f 0b7c 7a3f 4c5b 803f 889e 7c3f
000002d0: 3d7c 7f3f f1ad 7d3f 297e 823f cb28 803f
000002e0: 949a 823f f9af 7b3f d090 823f 76c2 823f
000002f0: 3ad9 7f3f 1011 773f 26c3 813f e75f 813f
00000300: 884c 833f 00dc 7c3f 3d5e 823f ce59 7b3f
00000310: 8e93 803f 2cc7 7e3f d91e 7f3f efc1 803f
1.02386 1.0132073 0.99248415 1.0130755 0.9690679 0.9740947 1.0150709 1.0002278
1.0288239 0.998814 0.98825604 0.99279016 1.0181221 1.0082629 1.0156025 1.0151178
0.99173826 0.99353117 0.9875872 0.9939145 1.0036272 1.0128678 0.9935073 1.0405971
1.0280226 1.0097123 1.0057894 0.9672061 0.98494524 0.99055433 0.96639633 0.95832765
1.004369 0.9833772 0.97260743 0.99021864 0.99759007 1.0201945 1.0094032 1.0249177
0.97732073 1.0138973 1.0268568 0.98037696 1.0072418 1.0185392 0.99330467 1.0087526
0.9852942 1.0134947 0.9901147 1.0040963 0.9736019 0.9611638 0.98489946 0.97118574
1.020537 0.96949095 1.0157311 1.0003521 1.0179216 1.0018582 0.9783683 1.0096394
1.0009338 0.9989602 0.9967303 1.0196772 1.0288169 0.9933604 0.9672982 1.0023179
0.9858827 1.016584 0.98030704 0.98860604 0.9919406 1.0259726 1.0006325 0.9800347
1.0093745 0.99905723 0.94026625 0.9637649 1.0139251 1.0284925 1.0494759 1.0066243
0.985947 0.9924039 1.008464 1.0198892 0.99735624 1.0117816 1.0069919 0.98961455
0.9923845 1.0025183 1.0027859 1.0014312 1.0104831 1.0092791 0.9933145 1.0185622
0.98643845 1.0159428 0.9843065 1.0067081 0.9992453 0.9978031 0.9945635 0.99936414
1.0091918 1.041032 1.0118693 0.96914625 1.0292026 1.0298396 1.0002549 1.0211612
1.0042433 0.9993721 0.99256873 1.0069116 1.0202435 1.0538348 1.0024042 0.97842777
0.9685672 1.0263286 0.9882339 0.98635036 0.9817118 1.007238 1.0149248 1.0066441
0.99736136 1.0368834 1.0070137 1.0202253 0.9815466 0.98131657 1.0111643 0.9735844
0.9699599 0.98462385 0.9760077 1.0108647 0.9891715 1.0215178 0.9991609 1.0126567
1.044288 1.0142127 1.0292552 1.0012459 0.9937878 0.9533671 1.0155269 0.9825459
1.0223532 0.9898923 0.9906241 1.0221133 1.030862 1.0051028 0.9717029 0.9978262
1.0017381 1.062362 1.0123432 1.0129929 0.9910248 1.034576 1.0116452 0.99975824
0.98900986 0.97845525 1.0027862 0.986794 0.9979895 0.9909354 1.0194751 1.0012449
1.0203424 0.9831539 1.0200443 1.0215595 0.99940836 0.9651041 1.013768 1.0107392
1.025773 0.98773193 1.0185009 0.98183906 1.004503 0.9952266 0.99656445 1.0059184

bias f4 [200]
00000000: f643 263b 48bb 8fbc e4ea b83c e2b9 9abc
00000010: b306 9c3c 53c3 683d 04ab 3f3c 820b 073c
00000020: d619 91bd c003 7f3b 6040 213c 8100 e73c
00000030: 3f5b c1b8 3031 133b 049e b7ba 4908 b4bc
00000040: 91d3 363b f492 23bd 18cd 253c 6828 89bc
00000050: 0e70 e4bc d020 c9bb 57b8 86bb eee2 03bd
00000060: 9964 ccb6 89f3 ddbc ad9e 963c df3b 633c
00000070: 0701 d5bc c233 95bc ad7e bcbc 3b18 303b
00000080: 1aee 65ba cbb8 6dbd 6079 42bd cedf 47bb
00000090: 8d08 103c a323 91bb f56d bdbb a2dc b73c
000000a0: bf6d 923b 42ca f13c 0f82 efbc 0aa6 bb3b
000000b0: 80a0 453a 0ce9 933c e6e3 973b 722a 36bd
000000c0: 52eb 893c 378e 603c 1ffc a03b a58a 7d3c
000000d0: 0516 bf3c 645a 133d 453d 05bd 7fad 28bd
000000e0: 7762 013c 0d9b 083c d1bf 8d3c 245a 013d
000000f0: 8cfd 18bd 6e0e a1bc 5536 0dbd 15df 65bc
00000100: d7f3 0cbd c08a b7bb 4558 3a3d ae87 66bd
00000110: f2bf 34bd 6afb 91bc 04b4 843c 8c85 c7bb
00000120: 6706 033c d864 15bb 11af 8abc 9c3c 863c
00000130: 075a 01bd 1247 8739 6d74 973c fd6f 84bb
00000140: 52cf 203a fb6d af3a 968f acbb 25c0 893c
00000150: 4aa7 87bc 575c 393d f1e8 72bc 4deb 94bc
00000160: 89e0 953c 054e ab3c cbf3 143c 155d 25bb
00000170: 6ee0 d7bc a92e 12bc d3af 5dbc 78ee da3c
00000180: c3d8 393c 3a10 133d e2f3 dc3c 3aa4 063c
00000190: 2a92 7dbc ef88 ab3b 4ebb eebb c12e 383c
000001a0: e310 563d 8bf9 453d 2583 3439 f613 7fbc
000001b0: cd91 b2bb 7dbc c63c d080 1abd 8085 193d
000001c0: 75b8 28bb 95ab 8f3b c9b9 01b8 a3c0 723c
000001d0: ac3f 64bb d3e7 22bd 47ac dcbc f8f3 f43c
000001e0: 5bf7 57bb b721 41bc e5f8 3dbd f089 0bbd
000001f0: 8c01 6cbb 0dc6 bbbc cf59 1c3c e8a1 f6bc
00000200: 2ef5 c7bc 7182 c5bc 8e79 65bd c681 903b
00000210: 8a3b c5bb 9f93 a13c e3dd f23b b2ed 93bc
00000220: 6c70 e23b 31da 4f3c c886 c63c 0a93 e13b
00000230: cece e3bb 78b9 f83c 3b31 99bb 3a60 c0bc
00000240: 49fd 68bc ec75 863d e57b c0bc a7fd f63c
00000250: b1a4 abbc 86ee fdbc f8be 6ebd 63bf 49bc
00000260: 2cbf 46bc 6be7 5cbc d7bf 823b ace2 f3ba
00000270: 8dc7 853c 34da 623c eda4 ee3b 33b1 b43c
00000280: b5d4 bbbc bde3 a33c f7fa 18bd 951a 47bd
00000290: 804e a1ba 588c 58bc 8270 303b 3c3d 1dbc
000002a0: 4634 6ebd 7b04 20bd 15d3 363d 32e1 593b
000002b0: 7ae4 d1bb 603c 8b3c 521b a1bc ce0c d03c
000002c0: 89b0 75bb 0e19 243d 4060 eabb 904f 7e3c
000002d0: 05eb 0ebc 486f f4bb 65b5 c03c 600a 8d3c
000002e0: 1142 9cbc 2177 0b3d e6dc 2abc 20eb 343c
000002f0: 27f4 2d3d 1221 b1bc 6ec5 6cbc 0eb2 223d
00000300: 706e e4bc 524d b03c ccad a03c d49e 3b3b
00000310: 79c7 93bc 259e 3cbc a3b5 56bb 58de d3bb
0.0025370098 -0.017545357 0.022572942 -0.018887464 0.019046163 0.0568269 0.011698488 0.00824249
-0.07085006 0.0038912147 0.009842008 0.028198482 -9.219953e-05 0.0022459738 -0.0014008884 -0.021976607
0.00278971 -0.039935067 0.010119699 -0.0167429 -0.027885463 -0.0061379448 -0.0041113305 -0.03219884
-6.091385e-06 -0.027093666 0.01838621 0.013869255 -0.026001466 -0.018213157 -0.023009622 0.0026869911
-0.00087711366 -0.05803756 -0.047479033 -0.0030498388 0.008791101 -0.004429297 -0.00578093 0.022444073
0.004468649 0.02951539 -0.029236821 0.0057265805 0.000753887 0.018055461 0.004635322 -0.044474073
0.016835842 0.013705782 0.0049128677 0.01547495 0.02332593 0.035974875 -0.032529134 -0.041181084
0.007897011 0.008337748 0.01730338 0.031580105 -0.037351176 -0.0196602 -0.034475643 -0.014030238
-0.03441223 -0.005601257 0.045494337 -0.056281738 -0.044128366 -0.017820079 0.01619912 -0.006088918
0.007997132 -0.0022795703 -0.016929181 0.016386323 -0.031579997 0.00025802158 0.018488133 -0.0040416704
0.0006134409 0.0013384217 -0.00526614 0.016815254 -0.016559262 0.045254078 -0.014826045 -0.018178606
0.018295543 0.020911226 0.009091328 -0.0025232483 -0.026352134 -0.008922257 -0.013530689 0.026725039
0.011343184 0.035904147 0.026971761 0.008217866 -0.015476743 0.0052348296 -0.007285512 0.011241616
0.0522622 0.048333686 0.00017214993 -0.015568724 -0.0054495097 0.0242598 -0.0377205 0.03748083
-0.002574471 0.004384468 -3.0929023e-05 0.014816436 -0.003482799 -0.039771866 -0.026937617 0.02990149
-0.0032953832 -0.011787823 -0.046379942 -0.034067094 -0.0036011664 -0.022921586 0.009542896 -0.0301065
-0.024408903 -0.02411005 -0.056024127 0.0044100014 -0.0060190605 0.019723712 0.007411705 -0.018057678
0.0069103744 0.012686298 0.02423419 0.0068839835 -0.0069521433 0.030361876 -0.004675058 -0.023483384
-0.014220544 0.065654606 -0.023496578 0.030150248 -0.020952554 -0.030997526 -0.05828759 -0.012313697
-0.01213054 -0.013482909 0.0039901542 -0.0018606982 0.016330505 0.013845969 0.0072828443 0.022057151
-0.022928575 0.020006055 -0.037348714 -0.048609335 -0.001230672 -0.013217054 0.0026922529 -0.009597119
-0.05815532 -0.039066773 0.044634897 0.00332458 -0.0064054104 0.016996562 -0.019666348 0.02539673
-0.0037489256 0.040062957 -0.007152587 0.015521899 -0.008723025 -0.007459555 0.023523996 0.017216861
-0.019074472 0.034049157 -0.010428643 0.011042386 0.04246917 -0.021622214 -0.014451368 0.039720587
-0.027884692 0.021521244 0.019614123 0.0028628604 -0.018039452 -0.011512314 -0.0032762073 -0.0064657144

running_mean f4 [200]
00000000: 302f 6c3e 98be 523e e420 f23d c77a 103e
00000010: 4c89 003e 4655 1d3e 8c90 a03e 4d09 8f3e
00000020: 6c19 3f3e c89a 733e 15f0 3e3e 31c7 6f3e
00000030: 2153 273e 7f73 0d3e 2ab4 1c3e e488 123e
00000040: aa2a 103e a8ab 353e 04cc 563e ace5 4c3e
00000050: 6947 123e a4dc 1b3e 3817 bf3d 1b85 6a3e
00000060: 10d0 663e 66a2 013e fbed 213e 4560 d73d
00000070: cbef 1c3e 0644 3c3e 5e1c 513e 3afd 423e
00000080: f197 073e 9aeb 3a3e d06f 203e 26ad f33d
00000090: 188e 1b3e 52d0 133e f6a2 0f3e 5767 d93d
000000a0: bf4a fc3d 3179 983e 6dc6 333e 3c14 113e
000000b0: ef25 073e cc5b 483e 2106 5a3e 73f0 053e
000000c0: 66b6 543e d7ae 893e 592a 213e 3d8f 053e
000000d0: 1985 103e b4f6 1e3e 481c 523e bfc6 1c3e
000000e0: 1bef 6e3e f584 e53d 1142 693e fae6 873e
000000f0: 5f47 3b3e a0f9 323e 6dbe 0f3e 48c1 373e
00000100: 28e6 1f3e bda7 053e c204 313e 1e24 b93d
00000110: 1d46 6f3e 84ea 443e d5f3 2e3e c253 e43d
00000120: 23cc 393e 12c7 213e 7ef9 953e 1be2 133e
00000130: bdc5 633e 9dbe 593e e4d7 653e ad08 f43d
00000140: d08d 523e c902 143e 8f7b 003e 2849 653e
00000150: e13f 7e3e b495 183e ebb7 5f3e 1048 0b3e
00000160: cf95 0f3e 87ce 9a3e 95fe 863e 6783 ca3d
00000170: e6d8 a63e c863 8b3e 7ef1 093e e633 193e
00000180: a397 c83d ffa0 a83e c9cd 443e baa9 463e
00000190: b214 103e 93cc 953e ff23 303e 91b3 523e
000001a0: 4087 db3d 480e 563e 790f 393e 1a8e 2e3e
000001b0: 96b7 2f3e 8588 453e af27 1e3e 65b5 623e
000001c0: 8161 5e3e 3fd6 843e 8bd1 043e c41d 093e
000001d0: 18bf 433e 0635 343e d573 463e a791 013e
000001e0: 6f4d 313e 4006 e03d 1425 323e da98 763e
000001f0: 98f6 3f3e 954b 2d3e be3d 063e 2fcf 643e
00000200: e009 203e 2237 f63d 8850 713e 641a 223e
00000210: 5d85 393e 2fa2 163e 2482 723e b10c 3b3e
00000220: 9bf1 683e 3d22 273e ea4e 4c3e 09aa c33d
00000230: 3952 093e 2145 003e 081a f03d ef23 163e
00000240: 5b13 183e 6209 fe3d 410a 223e af4f 733e
00000250: cfe3 303e ecbe 483e d6c6 5a3e 5403 0c3e
00000260: f47c 053e b532 4b3e 3128 6c3e 74e1 213e
00000270: ce7d 1e3e b051 413e 3ec7 513e b9b2 273e
00000280: e8d7 393e 795c 0e3e a0b1 6d3e 2eb8 5d3e
00000290: b18c 243e 4f52 f83d 6e50 2e3e d89d 193e
000002a0: efa9 1a3e 7a7e 133e 57ca 0b3e 7878 483e
000002b0: ba90 693e 8316 df3d 1072 643e 5613 3f3e
000002c0: 0ce6 1e3e 326c 0f3e 5a75 343e a325 313e
000002d0: 5d36 ef3d e1a5 033e 0600 833e ea5e 113e
000002e0: 9b26 703e 906c 6e3e b91a 923e fa94 223e
000002f0: ccf5 813e 4a50 213e f035 833e 008b 393e
00000300: 5662 4c3e 44df 7b3e 0084 4d3e 1ea6 173e
00000310: 2efd 073e f2f5 df3d e57a 063e e6b4 153e
0.23064876 0.20580518 0.1182268 0.14109336 0.12552375 0.1536456 0.3136028 0.27936783
0.18662041 0.23789513 0.18646272 0.23415829 0.16340305 0.1381359 0.15303102 0.14310032
0.14078775 0.17741263 0.20976263 0.20009488 0.14285053 0.15220886 0.093306005 0.22902338
0.22540307 0.12659606 0.15813439 0.10516409 0.15325849 0.18385324 0.20420977 0.19041911
0.13241555 0.18253937 0.15667653 0.1189826 0.15190923 0.14434937 0.14027008 0.10615414
0.12318944 0.29779962 0.17556162 0.14167875 0.13198064 0.19566268 0.212914 0.13080005
0.20772704 0.26891205 0.1573881 0.13042922 0.14113273 0.15523797 0.20518601 0.1531019
0.23333399 0.11207 0.22779109 0.2654341 0.18288945 0.17478037 0.14037485 0.17944825
0.15615141 0.13052268 0.17286971 0.09040092 0.2336659 0.19230086 0.17085202 0.11148788
0.18144278 0.15798596 0.2929191 0.14441721 0.222434 0.2126412 0.22445637 0.11915717
0.2056191 0.14454187 0.12547134 0.22391188 0.24829055 0.14900857 0.21847503 0.13601708
0.14021991 0.30235693 0.26366106 0.09888344 0.32587355 0.27224565 0.13471028 0.14961204
0.097945474 0.3293533 0.19219126 0.19400683 0.14070395 0.2925764 0.17201231 0.20576312
0.10719156 0.20903885 0.18072309 0.17046395 0.17159876 0.1929036 0.15444826 0.22139509
0.21716882 0.25944707 0.1297056 0.13390261 0.19115865 0.17598352 0.19380124 0.12653218
0.17314695 0.10938692 0.17396957 0.24081746 0.18746412 0.16923364 0.1310949 0.2234466
0.15628767 0.120222345 0.23565876 0.1583038 0.1811728 0.14710306 0.23682457 0.1826656
0.22748415 0.16321655 0.19951978 0.09553916 0.13410272 0.1252637 0.11723715 0.14662145
0.14851134 0.124041334 0.15824224 0.23760866 0.17274402 0.19604081 0.21364912 0.13673145
0.13035947 0.19843562 0.23062207 0.1580866 0.15477678 0.18878818 0.20486161 0.16376771
0.18148768 0.13902463 0.2321229 0.2165229 0.16069295 0.12125074 0.17022869 0.15001619
0.15103887 0.14403716 0.13651405 0.19577205 0.22809115 0.10892966 0.22309136 0.1865972
0.15517443 0.14006117 0.17622891 0.17299514 0.11680291 0.12856247 0.25585955 0.14196363
0.23452227 0.23283601 0.28536013 0.15877143 0.2538284 0.15753284 0.2562709 0.1811943
0.19959387 0.24596888 0.20069885 0.14809462 0.13280174 0.10935582 0.13132818 0.14619789

running_var f4 [200]
00000000: ad1b e33d af56 b73d 44b4 0d3d 9503 4a3d
00000010: 139b b43d d674 433d 74c3 6d3e 1af3 d83d
00000020: 76a3 bc3d 174f 0a3e 26b5 7b3d fd6d dc3d
00000030: 776d 9a3d de35 273d c9fa 263d b229 803d
00000040: 9ee4 323d 474e 953d dece eb3d 98a9 1b3e
00000050: a716 733d bbf3 0e3d 6713 bc3c 286d 893d
00000060: 55e4 f53d 5ead 893d 5f28 3c3d 2ec4 c73c
00000070: efe3 703d 267f 7c3d f527 cb3d e810 733d
00000080: b4b5 3d3d 36cc 503d b8e6 5b3d ece8 183d
00000090: 0eaf 223d 4afe 823d b7db 5f3d 0050 d93c
000000a0: 8cad fd3c 03aa 3e3e f40a b13d 16d9 1e3e
000000b0: 95ad 653d b106 db3d 1151 043e a385 363d
000000c0: 5a6c 7a3d 6b6e a43d 554c a63d 48cd 113d
000000d0: 1e02 083d 0d38 8f3d d705 7f3d 1971 183d
000000e0: fde5 b93d f27e 513d 45ff fb3d 18c7 043e
000000f0: c7a9 7a3d d664 703d fef6 463d 7bdd 453d
00000100: 2f82 8f3d 1407 2c3d 12c9 943d 38c8 c83c
00000110: 6b79 b63d bf58 ba3d e090 c03d f3ce 693d
00000120: b2c5 853d 44d2 a53d a7fb 123e decd 4d3d
00000130: e7e8 ac3d c034 6b3d 90e3 063e effc 013d
00000140: eaac df3d fd01 833d 89d1 353d ef26 993d
00000150: 101a c43d c457 1e3d fac6 c53d 3e94 293d
00000160: f018 443d f8d1 0a3e c1f3 363e 26cb d13c
00000170: 0bef 1c3e b6d5 be3d 587e 323d 8932 2f3d
00000180: d11d 8f3c 670c 003e d423 dd3d 10fd a93d
00000190: 484b 3d3d 9bc1 2d3e 5677 e33d 222e 813d
000001a0: c173 e03c 03fc e63d 8d8b 8f3d 54f1 3a3d
000001b0: 1d98 373d 77f9 943d 9115 3f3d 3eab c93d
000001c0: 08b6 f33d 4142 af3d fa3d 1f3d 7b63 0e3d
000001d0: 947e 823d a193 613d cec5 b03d 9bb9 133d
000001e0: 1ec0 6e3d 0b81 113d 896f 743d 4286 9d3d
000001f0: 5212 c03d 9957 3d3d 64f2 2b3d 41bb 9b3d
00000200: a4a5 7c3d 8128 063d ef54 853d 5942 3b3d
00000210: f97f 813d 3efa 1b3d 4fda d53d d7ad a53d
00000220: adaa d03d 6d75 3d3d e053 e63d 1f0a b73c
00000230: 1120 4a3d aee6 5a3d 89f7 f63c 020d 523d
00000240: ec45 9b3d 981a f03c 31df b73d 521a 033e
00000250: 5e47 863d d18c ed3d ef9e b33d db27 473d
00000260: f256 1a3d 3ce4 8b3d 30fc f43d 4244 583d
00000270: 7e16 bd3d b7ee a23d 9d42 953d 18d0 7e3d
00000280: da1b 563d a4cb 6c3d 3066 d83d 0385 c63d
00000290: 5c1a 743d c184 be3c 8f9b 3a3d 63be 893d
000002a0: d78b 673d e4ca 353d 45e4 293d d887 dc3d
000002b0: 4116 503e 3e3c c43c ed85 a93d d4f0 933d
000002c0: 06a5 6c3d a363 2e3d 89fa 8d3d 073a 843d
000002d0: f0c1 163d cc6a 123d 9f42 1d3e 9228 283d
000002e0: 6f31 0b3e d6a3 c93d f29d d73d 2082 473d
000002f0: fa6b f43d 795b 2d3d 4fa6 d03d 00a3 913d
00000300: 4ee5 f23d 1dde 263e 1720 c43d 47c4 4b3d
00000310: 23f1 6c3d f597 043d dba0 313d ca0d 823d
0.11089263 0.089520805 0.034595743 0.049319822 0.088186406 0.047718845 0.2321909 0.10593243
0.09210865 0.13506733 0.061452053 0.10763166 0.0754041 0.040822856 0.04076651 0.06257953
0.043675058 0.07290321 0.11514066 0.15201414 0.059347775 0.03490041 0.02295847 0.06710273
0.120064415 0.0672252 0.04593694 0.024385538 0.058811124 0.061644696 0.099197306 0.059342295
0.046315864 0.050976 0.053686827 0.037331507 0.039717726 0.06396158 0.054652896 0.026527405
0.030966543 0.18619542 0.08644667 0.15512499 0.056073744 0.10694636 0.1292155 0.04456104
0.06113849 0.08028873 0.08120028 0.035596162 0.033205144 0.06993113 0.06226143 0.037217233
0.0907707 0.051146455 0.12304548 0.12966573 0.06119707 0.058689915 0.048575394 0.048306923
0.070072524 0.041998938 0.072649136 0.024509534 0.089098774 0.09098958 0.09402633 0.057082128
0.06531848 0.080967456 0.1435381 0.05024516 0.0844286 0.057423353 0.13172746 0.031735357
0.109216526 0.063968636 0.04438928 0.07478129 0.095752835 0.03865792 0.096570924 0.04140114
0.047875345 0.13556659 0.17866422 0.025609564 0.15325563 0.09318106 0.043577522 0.042772803
0.017470272 0.12504731 0.10797849 0.08300221 0.046214372 0.16968386 0.11106746 0.06307627
0.027398946 0.11278536 0.07009039 0.045640305 0.0448228 0.07274144 0.046651427 0.09847115
0.11899954 0.08557559 0.038877465 0.03476284 0.06371799 0.05507243 0.08631478 0.03606568
0.058288686 0.035523456 0.05967668 0.07691623 0.09378494 0.046226118 0.04197921 0.07604075
0.061681405 0.03275347 0.065103404 0.04571757 0.06323237 0.038080446 0.1044203 0.08089798
0.10188804 0.046254564 0.11246467 0.022343693 0.049346987 0.05344265 0.03014733 0.051281936
0.07581696 0.029309556 0.08978117 0.12803009 0.06556581 0.11599124 0.087705486 0.048621994
0.037680574 0.068306416 0.119621634 0.05279947 0.09232806 0.079556875 0.07288096 0.062210172
0.052272655 0.057811394 0.10566366 0.09693339 0.05959545 0.023256661 0.04555851 0.067257665
0.056529846 0.044382945 0.04147746 0.10768098 0.20320989 0.023954507 0.082774974 0.07223669
0.057774566 0.04257549 0.069325514 0.0645638 0.036806047 0.03574638 0.15357445 0.041054316
0.13593076 0.09845702 0.105281726 0.04870808 0.119346574 0.042323563 0.10187971 0.07111168
0.11860143 0.16295667 0.09576433 0.04974773 0.057847153 0.03237148 0.043366294 0.06350286

weight f4 [100, 200]
00000000: 4cf4 febc c1ac 3abd 1ea6 6a3d af8b b3bc
00000010: f1c5 14bd b402 553d e380 c73c f946 5a3d
00000020: 8375 633c 4df1 57bd d8e4 cf3d 2c4d 343c
00000030: 33f0 b1bd ad62 b23d 0efb 3cbd 68c7 71bd
00000040: dfdc b5bb dbb1 7e3d 6e3b 253b 8ca6 61bd
00000050: b934 8fbd 6ae4 173c 1772 1fbd 7005 733c
00000060: 5b47 a53d 05b7 2ebd 02c7 98bd b58b 37bd
00000070: 15f7 2abb 7b9e d1bc f158 9c3d 8a6d 57bd
00000080: af07 213d eeba ae3c 1f65 603d 47e2 9fbd
00000090: 08dc 343d f726 68bc 8576 0abd dd83 c3bb
000000a0: cc14 2c3d 0e9e 9e3c b04e f5bc 69cc ec3c
000000b0: 17ff c2bc b391 6c3c 48a4 07bc 77b4 77bc
000000c0: d1c9 3b3c 66b4 6f3d 940c 4b3d 6919 9d3b
000000d0: 6ada 8f3c 3746 b1bb cff7 d1bb aee7 813d
000000e0: efd9 523d 4cf1 f13c 27e0 5c3d e209 d4bc
000000f0: 9b2d 873d 3096 a9bc 8d13 fc3c 3aab 3bbd
00000100: 4cbe a7bd 45ec 283d 29bc ad3b 253d f5bd
00000110: 5935 563d 2a3d b3bc ce64 f83c e4e4 4a3d
00000120: aae2 813d 9213 92bc 1ebe 333c 9898 24bd
00000130: 79f6 713c e9ce 3a3d c732 943c 87ff 863c
00000140: e79f ea3c 5c87 71bc 7cc3 ad3c 05cf a1bd
00000150: 2e80 79bc 40aa 703d 950a 013d 279a 5e3d
00000160: 53c4 313d f10f 58bd 5158 043b 06d2 a2bc
00000170: f914 aa3b e241 f23b da2b 243d 98f0 8d3d
00000180: 286c 8b3c 4a3c 4ebc e643 1dbb b60f a73c
00000190: f27d 1e3d d8ec 85bc 06ec 61bd 66a9 d63c
000001a0: fb5a 2ebd d61c 8a3b 7d81 cb3c 25ff 383c
000001b0: 2e89 a93d 9602 853d b311 93bd f9f9 9fbc
000001c0: 771f d03c dd34 7f3b 8fa1 4fbd f560 823d
000001d0: 19d6 7abd 2001 96bd b09c a8bd ba46 4dbd
000001e0: a1d7 65bc 1adb da3c 43bb 693b 6eb0 dcbc
000001f0: 70f9 6a3d 6c1e 913c 67a4 d8bc ff32 9e3c
00000200: 10d4 093d 0f80 4fbb 969f 933c 2d83 473c
00000210: 1cc4 19bd e4fd 6e3d d7c1 113d 68b6 a13c
00000220: e7b5 043d d20a 4cba cfd1 debc bdc3 f03c
00000230: ccc6 88bd 60e5 c7bc 14b9 8abd 2b92 8fbc
00000240: b00d f0bc 4265 7ebc 3070 d8bc 19b3 f23c
00000250: 7951 283c 1c16 cabd 2b86 83bd 1ed5 03bc
00000260: e901 9e3c db54 0e3d 0102 4a3d 53a9 b5bd
00000270: 09c4 6d3d 08f7 2a3d ceb8 a0bd fceb 6bbd
00000280: 7d74 abbd fee3 a1bb dcb2 aa3b 89b2 a4bd
00000290: bacb ddbc 2200 533d 3913 97bc b4b1 abbd
000002a0: d8af a5bd 7680 8fbb cf11 023d 5098 0cbd
000002b0: 36c1 9bbd 7a75 893c 5400 1bbd b9df 3cbd
000002c0: afa3 973d 1eec 943d 670f 4aba ee70 eabb
000002d0: bce7 233d 8d6e 96bd 5cdd f5bc 9273 21bd
000002e0: 7a21 b5bd 83b3 283d ae37 86bd 3e66 aebc
000002f0: 9421 653d 9ddc 8a3d 0d07 963b fac0 253d
00000300: 4eb1 cfbc ac15 b1bd 6a2d 92bd 3ccf 7f3b
00000310: 4fde 79bc 3d7c 533d ff86 48bd ac84 0bbd
00000320: 1be4 823d 7018 62bc d555 b4bb 87f2 af3b
00000330: c3b9 9dbc fabf 9cbd 4572 af3d c6bc c0bc
00000340: 6c09 ab3c ee51 e53c 1e49 b3bc d9b2 b1bc
00000350: 7189 35bc ba1b 4dbb 507c 8bbc 67c8 93bc
00000360: 41ae 393d 0fc1 3d3d c33b 723d 6175 eabc
00000370: 9ffe 47bd 2321 acbc 725a 2bbb 476e 6a3c
00000380: 8672 913d 1138 973d a102 83bd fcdc ab3d
00000390: 2751 39bd c6b9 f3bc a914 5f3d 28ec 91bd
000003a0: 58f1 c8bc ac33 b6bd 7e71 513d 849b 4b3d
000003b0: c82c 4f3d a6b9 cebc 179e 8ebd 4331 c23c
000003c0: 4c63 73bd 3be6 dcbc 5409 b5bd d23a 863d
000003d0: d0aa 133c 5110 883c 20ed 8a3c 80fb 99bb
000003e0: 3614 e6bc 5f48 c23d b1e5 eabc c386 d9bc
000003f0: a0d5 4abd d2e3 53bd bf26 df3c e86d fc3c
-0.03112235 -0.045574907 0.057287328 -0.021917192 -0.036321584 0.05200453 0.02435345 0.05329034
0.013882997 -0.052720357 0.1015107 0.011004727 -0.086883925 0.08710227 -0.046137862 -0.05902806
-0.0055500115 0.062181335 0.0025212425 -0.055090472 -0.06992478 0.009270767 -0.038927164 0.014832839
0.080702506 -0.04265501 -0.07459833 -0.04481097 -0.0026087214 -0.025588265 0.07634152 -0.0525947
0.03931397 0.02132937 0.054783937 -0.07806831 0.04415515 -0.014169446 -0.033804435 -0.005966647
0.04201202 0.019362476 -0.029944748 0.028906064 -0.023803277 0.014439034 -0.008278914 -0.01511871
0.011461691 0.05852165 0.049572542 0.004794289 0.017560203 -0.0054099816 -0.006407715 0.063430175
0.05147737 0.029534005 0.053924706 -0.025883619 0.066004954 -0.020701498 0.030771041 -0.04581759
-0.08190593 0.04124095 0.0053019715 -0.11974553 0.05229697 -0.021879751 0.030321505 0.049534693
0.06342061 -0.017831597 0.01097062 -0.040184587 0.014768236 0.04560748 0.018090619 0.016479267
0.0286407 -0.014741745 0.021211378 -0.07900814 -0.015228314 0.058756113 0.031504232 0.05434623
0.04340012 -0.052749578 0.0020194242 -0.019875538 0.0051904884 0.0073931077 0.040080883 0.06930655
0.017019346 -0.012587616 -0.002399677 0.020393234 0.03869433 -0.016348287 -0.05515673 0.026203822
-0.042567234 0.0042148633 0.024842018 0.0112913 0.08278118 0.06494634 -0.0718111 -0.019528376
0.025405629 0.003894142 -0.050691184 0.06366149 -0.061239336 -0.07324433 -0.08233011 -0.05011628
-0.014028461 0.026715804 0.0035664595 -0.026939597 0.05736679 0.017714702 -0.02644558 0.019311426
0.033649504 -0.0031662022 0.018020432 0.012177271 -0.03754054 0.058347598 0.03558525 0.019740298
0.032400038 -0.0007783595 -0.027199654 0.02939021 -0.066785425 -0.024401367 -0.06773582 -0.017525753
-0.029303402 -0.015527071 -0.026420683 0.029626416 0.010273331 -0.09867498 -0.06422075 -0.008046417
0.01928802 0.034748893 0.049318317 -0.08870187 0.05804828 0.041739494 -0.07847749 -0.0575981
-0.08371828 -0.004940509 0.00520931 -0.080418654 -0.027074683 0.0515138 -0.018441783 -0.083835036
-0.0809018 -0.0043793274 0.031755265 -0.034324944 -0.076052114 0.01677965 -0.03784211 -0.046111796
0.07404267 0.07271598 -0.00077079836 -0.0071545755 0.04001592 -0.07345305 -0.030012779 -0.039416857
-0.08844276 0.04118682 -0.06553589 -0.021288987 0.055940226 0.0678036 0.0045784772 0.04046724
-0.0253531 -0.08646712 -0.07137568 0.0039033433 -0.015250756 0.051632155 -0.048956867 -0.034062073
0.06391164 -0.013799772 -0.005503396 0.0053694877 -0.019253617 -0.07653804 0.08566717 -0.023527514
0.020878516 0.027993169 -0.02188545 -0.021691727 -0.011080132 -0.0031297044 -0.01702705 -0.018039895
0.045332197 0.046326693 0.059139024 -0.028620424 -0.04882681 -0.021011895 -0.002614644 0.014308519
0.07101922 0.07383741 -0.06396986 0.08391759 -0.04524341 -0.02975167 0.054463062 -0.07125121
-0.024529144 -0.088965744 0.051133625 0.049708858 0.050579816 -0.025235008 -0.06963747 0.02370513
-0.05942087 -0.026965251 -0.0883967 0.06554188 0.009012893 0.016609343 0.016958773 -0.0046991706
-0.02808581 0.0948646 -0.028673979 -0.026553517 -0.049520135 -0.05173094 0.027240155 0.030814126

weight f4 [100]
00000000: df87 753f c844 723f 49a4 6f3f 4a69 763f
00000010: 81e7 6f3f 7f0f 7d3f a455 6e3f 6a03 7f3f
00000020: 5ffe 7b3f 9fbb 5b3f 55a5 783f fbed 793f
00000030: 7746 723f a8ff 7c3f 49f1 763f 0456 743f
00000040: 5ba4 6b3f b120 753f bd83 773f cba7 753f
00000050: 27e1 7b3f 2ee6 723f 0c1d 723f edff 773f
00000060: ee84 6b3f 09c5 783f b788 743f 914f 7a3f
00000070: 80dc 763f 26f5 6f3f 89a0 793f 22cb 753f
00000080: fd7f 723f cbca 793f 6fe5 6e3f e351 743f
00000090: 8958 703f 0e88 703f eac6 783f 18fe 783f
000000a0: a5d1 733f 4db3 743f 1ce9 7e3f 89e7 6f3f
000000b0: fb6b 743f 1036 723f ae07 733f e72c 7d3f
000000c0: 4ea4 783f 3e11 733f a715 733f 705e 763f
000000d0: e8c0 6b3f 3429 7c3f 54f4 743f 23f7 753f
000000e0: 3924 733f 2390 783f 57f5 753f 7dbf 7a3f
000000f0: 0153 6f3f f166 723f 3f9b 783f 2d4d 733f
00000100: 002f 753f bdd2 733f 7440 6f3f ac9a 763f
00000110: 4e8f 743f afe5 723f e07c 6a3f 528d 743f
00000120: 02a9 6f3f ff75 763f a802 7b3f 5bb3 753f
00000130: 18d5 723f 88d3 793f b4f5 743f daac 723f
00000140: c44b 783f 78af 723f acc7 763f 4809 7a3f
00000150: 5604 753f 2f4b 703f 4839 753f 71ff 773f
00000160: 2542 763f 3e83 753f eba3 733f 0782 743f
00000170: f1c0 773f 7366 783f 071a 793f 6412 5f3f
00000180: 9fa0 743f 907d 723f d099 6e3f cfed 723f
0.9591045 0.946362 0.93610054 0.9625441 0.9371262 0.9885177 0.9309943 0.99614584
0.98435014 0.8583316 0.97127277 0.97628754 0.9463877 0.988276 0.9646192 0.9544375
0.9204766 0.9575301 0.9668539 0.95959157 0.9839043 0.94882476 0.9457557 0.96874887
0.9199971 0.9717565 0.9552111 0.9777766 0.96430206 0.9373344 0.9751058 0.9601308
0.94726545 0.9757506 0.9331884 0.9543745 0.93885094 0.939576 0.9717852 0.97262716
0.9524177 0.9558609 0.99574447 0.9371267 0.95477265 0.9461374 0.94933593 0.9889664
0.9712571 0.94948184 0.94954914 0.9623785 0.92091227 0.9850037 0.95685315 0.96080226
0.94977146 0.97094935 0.96077484 0.9794844 0.9348603 0.94688326 0.97111887 0.95039636
0.9577484 0.95243436 0.9345772 0.9632976 0.95531166 0.9488172 0.91596794 0.9552814
0.9361726 0.962738 0.9805093 0.959768 0.94856405 0.97588396 0.95687413 0.94795
0.9699061 0.94798994 0.96398425 0.9767041 0.9570974 0.9386472 0.9579053 0.9687415
0.9619468 0.95903385 0.95171994 0.95510906 0.9677878 0.97031325 0.9730534 0.87137437
0.9555759 0.94722843 0.9320345 0.9489412

bias f4 [100]
00000000: 6fb8 84bb beef 693c 8aed dc3b 0299 e73a
00000010: 39a6 423a b0f4 f3bb be23 46bc 2ff4 153c
00000020: 93b9 8dbb 12ef 67ba cfff 81bb 9d01 8bbb
00000030: d486 333b 994a d7bb b73e 5e3b 2f3c fb3b
00000040: 207e 6b3b 912e 05bc 888e 49bc 1e25 80bb
00000050: 92b9 c73b fa0c b23b f8d2 373c ad45 22bb
00000060: 11dc 37bc 2bb9 de3a be6e 1ebc 3d12 0939
00000070: f235 15bc e0ba 91b9 e22c 453c 6a99 153c
00000080: a549 0bbc 3d4d 09bb 54a7 eeba f3bd d8bb
00000090: 7fa2 fa3b bbe7 f3ba a01b 4d3b 5a1e 7cbb
000000a0: df1f c4bb 5fbb 5b39 07cc 043c d85b b13b
000000b0: 0e4d 333b 307f 91bb 29aa 253c ffda 96bb
000000c0: 3194 263b b103 0c3b b9d5 d23b 09c0 1aba
000000d0: 83bd 02bc 0689 c9bb 961a c2ba 63c1 89bb
000000e0: 79f2 8abb 363f 5a3c 1359 343a fe5d 3a3a
000000f0: 8135 0cba 2468 dc38 7e75 063c a731 d3ba
00000100: b1aa f53b 38bf e43b 100d 19bc f80f 0cbc
00000110: ad85 24bb b91e d63a 529e 3ebc 77d0 4b3c
00000120: 844c d9bb 2a46 a8ba d63e 993b 2620 b9bb
00000130: 082c 1c3c 04e4 393a 1b1c 8f3b b18c c8ba
00000140: 0d82 193c 72a7 5f3a 94ef 41bb 2de4 5db9
00000150: 9189 023b 20fb 9eba d5df b53b 2417 8abb
00000160: 9545 1d3c 2997 74bb ee8a 23ba d457 da3a
00000170: 84fd 59bc 388c 153b 8e15 633a ef31 9e3c
00000180: 0bb2 b73a fa65 a039 0b67 103a 9b29 d6bb
-0.0040503065 0.01427835 0.006742184 0.0017669501 0.0007425282 -0.0074449405 -0.012093483 0.009152456
-0.0043251007 -0.0008847575 -0.0039672623 -0.0042421357 0.0027393596 -0.006570172 0.0033911893 0.0076670866
0.003593333 -0.008128778 -0.0123020485 -0.0039106747 0.0060951198 0.005433676 0.011219732 -0.0024760768
-0.0112219015 0.001699244 -0.009669958 0.00013072132 -0.0091071 -0.00027795788 0.012034627 0.009130815
-0.008501445 -0.0020950579 -0.0018207827 -0.0066144406 0.0076487656 -0.001860849 0.0031296983 -0.003847024
-0.0059852446 0.00020955269 0.008105285 0.00541256 0.002735916 -0.0044402108 0.01011137 -0.004603743
0.0025417919 0.0021364505 0.006434169 -0.0005903249 -0.007979753 -0.0061503677 -0.0014808949 -0.0042039617
-0.004240331 0.013320735 0.0006879728 0.0007109343 -0.0005348549 0.00010509815 0.008206723 -0.001611282
0.0074971546 0.006980803 -0.009341493 -0.008548729 -0.002510409 0.001633606 -0.011634426 0.012439839
-0.006631436 -0.0012838293 0.00467668 -0.0056495843 0.009531982 0.0007091167 0.004367364 -0.0015300718
0.009369385 0.0008531726 -0.0029592263 -0.00021161204 0.0019918422 -0.0012129284 0.0055503645 -0.0042141844
0.009599109 -0.0037321544 -0.00062386587 0.0016658255 -0.013305072 0.0022819173 0.00086625747 0.01931092
0.0014014853 0.00030593557 0.00055085187 -0.0065357215

running_mean f4 [100]
00000000: 8520 1b3f 9d38 eb3e 2409 df3e 3798 003f
00000010: bb02 fd3e df94 393f 72a6 bb3e 8133 e83e
00000020: c98c f83e b840 6e3f e4e3 b33e 6c44 9f3e
00000030: 3211 d53e 4668 713f b4d5 f13e c4ec 073f
00000040: 18b1 af3e d47e 153f 0893 de3e 2356 413f
00000050: 9f0d 703f e627 c43e 9c1b a03e de06 0e3f
00000060: 202b 173f bcf0 5f3f 17ed 0d3f 59bc 253f
00000070: 8c63 163f 1c53 de3f a0da 433f 9e5a a93e
00000080: 89e2 e03e 854d 593f a304 ae3e 0118 7c3e
00000090: a829 a63e 4eff ec3e 2419 093f 715f ed3e
000000a0: 5868 943e f24d ee3e 8047 e73e 836a de3e
000000b0: 1c00 c93e 6dc5 e53e 2754 143f 7a61 223f
000000c0: a237 5a3f a6bc 173f 0a51 bc3e 0bd3 e73e
000000d0: fafd 0d3f da05 ec3e 5e4c 203f c4b6 de3e
000000e0: 4ead f23e d01e ed3e a447 bd3e 3150 3c3f
000000f0: 29a4 133f ce5c b23e 5583 ca3e 16a4 1a3f
00000100: 7037 e33e 1fe6 df3e b278 c73e c29a d53e
00000110: fb01 ad3e 1b22 fe3e 1463 f53e 410d c13e
00000120: ba69 e13e 0d4d 123f 2ef1 d53e 65d4 453f
00000130: fe55 1f3f a728 de3e 83ee 3f3f 8465 db3e
00000140: 0e96 463f db58 da3e 97f8 1a3f 8e75 023f
00000150: eba1 043f 5f5c 033f ee10 213f 9eb3 fa3e
00000160: d151 103f dc71 2e3f e2f7 d53e 21e3 f43e
00000170: 094e 423f c52a e93e ab9a 003f aa48 133f
00000180: 7b51 153f 8b55 0d3f d1e2 fa3e a2bc e73e
0.60596496 0.4594163 0.4356166 0.5023226 0.49416146 0.72492784 0.36650425 0.45351794
0.4854491 0.930675 0.35134804 0.3110689 0.4161468 0.94299734 0.47233355 0.5309565
0.343148 0.5839665 0.4347155 0.7552206 0.93770784 0.3831169 0.31271064 0.5547923
0.5905018 0.87476707 0.55439895 0.6474052 0.58745646 1.7369113 0.7650547 0.33076948
0.43922833 0.8488391 0.33987913 0.24618532 0.32453656 0.46288532 0.53553987 0.4636188
0.28985858 0.46543843 0.45171738 0.43440637 0.39257896 0.44877186 0.57940906 0.6342999
0.8524114 0.5927223 0.36780578 0.452782 0.5546566 0.46098214 0.6261653 0.43498814
0.47397846 0.4631257 0.3696872 0.7355986 0.57672364 0.3483643 0.39553323 0.60406625
0.44378233 0.43730256 0.3895927 0.41719633 0.33790573 0.49635395 0.47927153 0.37705424
0.44025975 0.5714882 0.41785568 0.77277213 0.6224059 0.4339039 0.74973315 0.42850888
0.77572715 0.42645916 0.6053557 0.50960624 0.5180957 0.5131282 0.6291646 0.48965162
0.5637484 0.68142486 0.41790682 0.47829536 0.7590032 0.45540443 0.50236005 0.5753275
0.58327454 0.55208653 0.49001172 0.45261103

running_var f4 [100]
00000000: a9b8 443f 67c9 183f cfbf 343f 93b4 053f
00000010: fc29 573f f2d0 453f 9beb ef3e 7b78 db3e
00000020: 7617 ea3e 48e4 fb3f caa6 a13e 9876 a13e
00000030: 7f6d 943e ef9b bd3f 4a92 3e3f 776f 263f
00000040: 15cc f63e 7462 763f ab0d f53e f938 793f
00000050: 90f0 b63f 82c7 1a3f 40b5 cd3e dc49 8d3f
00000060: b104 3b3f 6670 973f 2ff8 363f e4e4 7c3f
00000070: 32f4 bd3e 40fa ba40 0acd 8c3f 1a31 823e
00000080: 999d 073f 3593 a93f 0772 483e 3e4b 2f3e
00000090: 9800 ee3e 4b55 e43e bb3b 3e3f 1032 eb3e
000000a0: 1eed 9f3e df6a 7d3f f60f 083f 177b 6d3f
000000b0: 89a8 853e d122 103f cc27 4c3f 831b 6f3f
000000c0: 63e0 863f a18f a83f 3576 153f 9441 c13e
000000d0: c654 103f 5f19 213f b44b 3c3f 570f e93e
000000e0: 5866 183f a242 1b3f 073b ad3e e89a 793f
000000f0: 096c 413f 6761 683e bce3 b63e d97c 343f
00000100: 36da 193f 83be f63e 1bff be3e 1b7f 413f
00000110: 982e 763e 2f91 e93e d154 123f 2774 153f
00000120: 8a05 003f 40ed 103f 334b 453f 8b8b 853f
00000130: b57b 683f 02a8 cd3e 50f4 773f dd95 573f
00000140: e245 c33f b329 093f 27c6 243f 91f4 583f
00000150: b725 f33e 6d28 593f 136c 963f 7009 383f
00000160: 3a06 8e3f ef23 823f 4589 d23e d86b 7c3f
00000170: c53a e13f a9b6 273f b445 dd3e 63f9 fa3f
00000180: ea0e 2d3f 3144 4c3f 3c64 273f 6987 403f
0.7684427 0.59682316 0.70605177 0.5222866 0.8404844 0.7727195 0.4685944 0.42865357
0.45721024 1.9679041 0.31572562 0.31535792 0.2898979 1.4813212 0.7444197 0.6501383
0.48202577 0.9624398 0.4786199 0.9735256 1.4292164 0.60460675 0.40177345 1.1038165
0.73054034 1.1831176 0.7147245 0.9878676 0.3710037 5.843048 1.1000073 0.25428087
0.5297485 1.3248049 0.19574748 0.17118546 0.46484828 0.44596323 0.7430989 0.45936632
0.31235594 0.989912 0.53149354 0.92765945 0.26105145 0.56303126 0.79748225 0.93401355
1.0537227 1.3168832 0.58383495 0.37745345 0.56379354 0.6292934 0.73553014 0.45519516
0.59531164 0.6064855 0.33834097 0.97501993 0.75555474 0.22693406 0.35720623 0.70503
0.6009859 0.48192224 0.37304005 0.7558457 0.24041212 0.4561858 0.5716067 0.5838036
0.5000845 0.56612015 0.7706787 1.043321 0.9081376 0.40167242 0.96857166 0.8421305
1.5255702 0.5357925 0.64364856 0.8474818 0.47489712 0.8482731 1.1751732 0.718894
1.109565 1.0167216 0.41120353 0.98602057 1.759606 0.6551309 0.43217242 1.9607357
0.6760088 0.7979155 0.6538732 0.7520662
